models/mnist/checkpoint.pt (torch, 743943 bytes, 10 tensors)

fc1.weight f4 [200, 784]
000000 0a be 4d 3d 42 8f c3 3c 04 75 8d 3b 40 f5 0f 3c
       0.050230063 0.023872022 0.004316928 0.0087864995
000010 4c 6d db 3c d8 63 5c 3c 0a a6 22 3d ff 79 a5 bb
       0.026785515 0.013451539 0.03970913 -0.0050499435
000020 08 3c ab 3c ce 23 4a 3b ac 44 d2 3c 1c 8c 0f 3d
       0.020902649 0.0030844095 0.02566751 0.035045728
000030 9d b3 fe 3b ac d0 1b 3d a4 b5 25 3d a0 53 11 3d
       0.0077728764 0.038040802 0.04045643 0.03548014
000040 3c c0 7e bc b1 d0 aa bb c2 db ee 3c de 66 57 3d
       -0.015548762 -0.0052128662 0.029157523 0.052588336
000050 40 c5 0c 3d 52 54 2e 3d 4c 91 28 3c 35 f9 9b 3b
       0.0343678 0.042560883 0.010288548 0.0047599324
000060 5a fb 39 3d 12 50 3d 3b ee ec 33 bc 22 a0 93 3c
       0.045405723 0.0028886837 -0.010981781 0.018020693
000070 58 e9 fa 3c ac 3e 23 3d 08 b1 86 bc 34 15 4e 3b
       0.030628845 0.03985469 -0.016441837 0.0031445744
000080 c2 16 40 3d e8 1d 04 3c d6 72 c0 3c 58 03 85 3c
       0.046896704 0.008063771 0.023492258 0.016236946
000090 4e 7a 1b 3d 96 00 d9 3c d6 08 24 3d fe d7 1a 3d
       0.037958436 0.026489537 0.04004749 0.037803642
0000a0 de 92 53 b9 50 87 c3 3c f3 ff 82 3c 51 e3 71 bc
       -0.0002017724 0.023868233 0.015991187 -0.014763669
0000b0 91 88 30 bc cb 6f d1 3c c6 81 08 3d e9 30 cd bb
       -0.0107747475 0.025566002 0.033326887 -0.006261934
0000c0 26 a6 92 3c 00 46 19 3d 0e 60 57 3d 56 26 d3 3c
       0.017901491 0.037420273 0.05258184 0.025775116
0000d0 51 02 be 3b 84 27 18 bc 7e c1 fc 3c 52 e8 60 3c
       0.005798616 -0.009286765 0.030853983 0.0137272645
0000e0 7e e6 2b 3d 44 0e e2 3c da 46 3a 3d f5 4b 01 3d
       0.04196786 0.027594693 0.045477726 0.03156658
0000f0 ee 0e fc 3c b3 ad a5 bb da 66 a4 3c 92 4b 05 3c
       0.030768838 -0.005056107 0.020068575 0.008135693
000100 d7 bc 3c 3d 78 97 57 3d ba 7e ac 3c 37 dd 08 3d
       0.04607853 0.052634686 0.021056522 0.033414092
000110 44 4a 4b bc 33 13 9f bc 7e a8 12 3d 54 f6 1c bc
       -0.012407843 -0.019418335 0.035805218 -0.009580214
000120 2d b5 89 3c 59 c0 a3 bc f6 0e 27 3d 3d 58 26 3d
       0.016810024 -0.01998918 0.040785752 0.040611494
000130 af b6 21 bc 22 d0 79 3a 6a 17 1f 3d a4 12 15 3d
       -0.009870215 0.00095296104 0.03884069 0.03639473
000140 72 41 14 3d e4 70 d7 3c c7 4f 93 3b 2c 69 12 3d
       0.036195226 0.026298948 0.004495594 0.03574483
000150 37 6e e2 3b 40 d9 04 3d 53 cd ae bb d4 e8 2b 3d
       0.0069101113 0.03243375 -0.005334535 0.04197009
000160 33 65 ca 3b 14 ac be bb 0d 1b eb bb 7a 76 bc bb
       0.0061766147 -0.005818853 -0.0071748556 -0.005751428
000170 7a 35 c9 bc 07 7d 86 3c 68 e2 c3 3c 09 a2 d7 bc
       -0.024561632 0.01641704 0.02391167 -0.026322382
000180 41 b1 ea bc 98 2b 1b ba 60 ce ec 3b 45 0a da bc
       -0.028648974 -0.0005919277 0.0072267503 -0.026616225
000190 25 12 7b bb f1 4c 36 bc ce fe 7f 3c 0c 4d 0b 3c
       -0.0038310376 -0.011126743 0.015624715 0.008502256
0001a0 97 10 6d 3d 94 30 19 3d e6 4b 04 3c 55 61 11 bc
       0.05787715 0.037399843 0.008074736 -0.008873303
0001b0 20 94 ca 3c 4f 7e 93 3c 04 c2 58 3c aa 03 18 3d
       0.024728835 0.018004565 0.013229851 0.03711287
0001c0 b5 b3 ce bb 36 6e 85 bc ed d1 b3 3b 82 cf 4f 3d
       -0.006308044 -0.016287904 0.0054876716 0.050735004
0001d0 87 52 84 3b 14 b2 f9 3b 74 b9 8f bc ac eb 95 3a
       0.0040381583 0.0076201055 -0.017544486 0.0011438034
0001e0 83 43 b1 bc 2d e2 17 bb 5a 01 e2 bb 54 66 b1 3b
       -0.021638637 -0.0023175583 -0.006897134 0.00541381
0001f0 18 ff c6 3c df 4e ad 3c 0a 9d da bc 7c a7 3e bc
       0.02429156 0.021155773 -0.02668621 -0.011636611
000200 41 8d df bb 18 2a 96 3c 1e 8c ca 3c 84 5b e1 3c
       -0.0068222587 0.018330619 0.024725016 0.027509458
000210 9d 33 91 3c b3 80 e3 3c 2f d2 39 3d 52 64 ed 3c
       0.017724806 0.02777133 0.045366462 0.0289785
000220 a5 2e 1a 3a cd b3 01 3d 07 1f c2 3c e7 54 14 3d
       0.00058815844 0.031665612 0.023696436 0.03621378
000230 44 aa 6e 3c 2a a2 16 bc c2 59 4f 3d 62 dc d4 3c
       0.014566962 -0.009193936 0.05062271 0.025983993
000240 14 d4 e3 3c 73 60 d5 bc fd e2 c3 3c 02 32 dd 3c
       0.027811088 -0.026046967 0.023911947 0.027001385
000250 f5 90 5c bc 82 47 41 3d 4f 96 4d 3d 80 c5 db 3c
       -0.013462295 0.047187336 0.050192174 0.026827574
000260 a0 be 63 3c 62 af 18 bd da 54 26 bd 06 7b a6 bb
       0.013900429 -0.037276633 -0.040608265 -0.0050805835
000270 62 df 78 bd 51 43 eb bc 3a ab a2 3a 0a de 84 3c
       -0.06075991 -0.028718622 0.0012410649 0.016219158
000280 54 23 0d 3c 65 7a a7 bb 1f 45 f4 3c 84 55 3d 3c
       0.00861438 -0.005111026 0.029818116 0.011556033
000290 30 22 d8 3c 41 59 66 3d 87 69 53 3d ad 1d a3 3a
       0.02638349 0.056237463 0.05161431 0.0012444757
0002a0 5b 8d c2 3b d0 27 46 3d ba 0d 25 3d 65 ce 4f 3d
       0.005937261 0.048377812 0.040296294 0.050733943
0002b0 97 19 46 bc 1f c3 cc 3c c6 b8 05 bd c4 97 1c bc
       -0.012091062 0.024995385 -0.032646917 -0.009557668
0002c0 0a e2 de 39 c1 7c dc 3c c0 ed 3f 3c 30 fe d6 3c
       0.00042511552 0.026914956 0.011714399 0.026244253
0002d0 a2 c8 27 bd 7a ce 9c 3c 18 93 2d bc 51 f2 97 bd
       -0.040962823 0.019141424 -0.010594152 -0.07419265
0002e0 00 30 4e bd 88 0b f0 3c b9 c0 bd 3d 47 2e 41 3d
       -0.050338745 0.029302374 0.092652746 0.047163274
0002f0 9f f3 16 3d 50 f2 03 3d e2 4d 28 3d d1 41 7c 3d
       0.03685343 0.03221351 0.0410899 0.061586205
000300 c3 02 ec 3c c4 07 77 bb 5c fd 21 3d de 9f 9d 3c
       0.02880991 -0.0037693838 0.039548263 0.01924127
000310 2a b9 17 bc ee 27 02 3d 80 b3 d7 3b f4 15 2f 3d
       -0.009260455 0.03177636 0.0065826774 0.042745546
000320 d9 81 cd bc 89 26 d9 3c 4b 51 93 3c 6b b1 02 bd
       -0.02508633 0.026507633 0.0179831 -0.03190748
000330 13 10 8e bd 59 ff 47 3c 69 18 8b 3c 4e cc 1f bd
       -0.0693666 0.012206876 0.016979413 -0.0390132
000340 a0 c4 e5 3c 20 92 3e bc 0d a8 ed bc 07 45 9a bd
       0.02804786 -0.011631519 -0.029010797 -0.07532697
000350 bc 9c 5f bd a7 56 5a bb 63 df 50 3d 61 e4 ab 3d
       -0.054592833 -0.003331581 0.05099429 0.08393169
000360 ba b7 c2 3d 28 20 53 3d 0d c9 8d 3c 7c 52 4f 3d
       0.09507699 0.05154434 0.017307783 0.050615773
000370 78 d4 87 3d 45 7c 70 3c 0c a1 b2 3c ab 8e ef 3c
       0.06632322 0.014678066 0.021805309 0.029242834
000380 f7 17 d8 3b 8d eb 4b 3c 54 2a 06 3d f8 52 ab 3c
       0.0065946537 0.012446296 0.03275521 0.020913586
000390 7e 7f 2a bb f4 49 13 3c 33 b0 23 bb 34 10 41 bd
       -0.0026015933 0.0089898 -0.002497685 -0.047134593
0003a0 f6 4c 35 bd f3 02 15 3c c9 58 df bc bc e8 ac 3b
       -0.04426285 0.009094941 -0.027264016 0.0052767675
0003b0 ad db ab ba fa 63 34 bd 40 f9 36 bd 13 88 8a bc
       -0.0013111733 -0.044040658 -0.044671297 -0.016910588
0003c0 36 27 8d bd 10 aa eb 3c 0f 72 83 3d 47 ec cf 3c
       -0.068922445 0.028767616 0.06418239 0.02538122
0003d0 78 f1 80 bb 15 0d db bc 32 10 ba bb 84 ca 11 3c
       -0.0039350353 -0.026739636 -0.0056782 0.008898381
0003e0 68 cd 86 3b ab 35 99 3b 97 23 3e 3d c3 21 55 3d
       0.004113842 0.004675587 0.04642066 0.05203415
0003f0 74 53 67 bc 25 d6 fd ba 52 40 0b bc 5c bc ca ba
       -0.014119018 -0.0019366188 -0.008499222 -0.0015467512

fc1.bias f4 [200]
000000 26 2b 2a bd d4 c0 23 bc 5f 8e dc bb a6 3d 76 bd
       -0.041545056 -0.009994704 -0.006730839 -0.060117386
000010 3e 0a b5 3c 6a 4f 09 3b 58 76 5e bc e4 63 b1 3c
       0.02209961 0.0020951875 -0.01357802 0.021654077
000020 f2 76 96 bb cc 52 af bc 0b b1 01 bc ca 46 ca 3a
       -0.004591816 -0.021401785 -0.0079157455 0.0015432474
000030 4a 5d c1 bb 5d fc e0 bc c9 17 9c bd 6d d1 00 bd
       -0.0059010135 -0.027464086 -0.07621724 -0.031449724
000040 2a bd a9 bc f7 ad cd bb b1 de 4e 3a d2 36 2a 3d
       -0.020720083 -0.0062768417 0.000789146 0.041556187
000050 b1 90 e9 bc b9 bd f4 bc e6 0d 8e 3c 8f 07 8d bb
       -0.028511377 -0.029875623 0.017340612 -0.0043038796
000060 27 7d ce bc 2c 71 c0 bc 36 f9 24 3c 24 23 d2 bc
       -0.025206162 -0.023491465 0.010069182 -0.025651522
000070 2a c3 3e bd 31 aa c1 3c 9f 7f e7 bc 4e d1 9c 3c
       -0.04657284 0.023640724 -0.028259097 0.019142773
000080 bb 30 b3 bc 99 10 95 bc b9 79 46 3b c6 c3 78 3c
       -0.021873822 -0.018196391 0.0030284955 0.015183395
000090 e4 37 4b 3c ba a1 df 38 24 85 d8 3c 12 12 18 bd
       0.012403462 0.000106635925 0.026430674 -0.03712661
0000a0 1d ae ea bc 0a c0 59 bc e3 42 4b 3a 47 8e be bc
       -0.028647477 -0.013290415 0.00077538023 -0.023261202
0000b0 c5 25 23 bc 2e d5 32 bd 1f da 51 bd 0f c7 d8 3c
       -0.009957735 -0.043660335 -0.051233407 0.026462106
0000c0 7f 06 b2 bc 66 e7 9c 3b 73 ba bc bb 05 f6 4b 3d
       -0.021731613 0.004788327 -0.005759531 0.04979517
0000d0 85 d8 91 bb bc 4b 78 bb d5 b0 b8 bc e1 99 3e bd
       -0.00445086 -0.0037886938 -0.022545258 -0.04653347
0000e0 00 f4 9a bb a0 60 34 3c e1 59 66 3c 08 d7 74 bc
       -0.004728794 0.011009365 0.014059515 -0.014943846
0000f0 25 37 81 bc 26 e7 b2 3c e2 fb c0 bc 38 43 1f bd
       -0.015773365 0.021838736 -0.023557607 -0.038882464
000100 da 7f d9 bb a7 94 93 bc 3c a6 82 bc 66 4f 43 3b
       -0.0066375555 -0.018015219 -0.015948407 0.0029801964
000110 52 ff 8e bc 3f 59 8b 3c 67 f1 1e 3c 8a 01 02 bd
       -0.01745573 0.01701033 0.0097011095 -0.03173975
000120 0d e3 8c bd f3 6c e3 3c 2e 0e 47 3c 01 64 3e bc
       -0.06879244 0.027761912 0.012149377 -0.0116205225
000130 62 68 86 bc d5 19 ad bc b1 b4 03 3c 7e 30 86 bc
       -0.016407195 -0.021130482 0.008038686 -0.016380545
000140 95 51 60 ba 9b 75 1e bd 2a d9 87 bd d7 ab 9e bc
       -0.00085570785 -0.038686376 -0.06633218 -0.019369049
000150 11 2a 02 bd 68 1d fd 3c ea fa 02 3b 2b 40 8f bc
       -0.0317784 0.030897811 0.0019985982 -0.017486652
000160 35 f7 a3 3c 26 b4 fe 3a ae e7 c5 bc a0 81 d4 bc
       0.020015338 0.001943235 -0.024158325 -0.025940716
000170 0f fb bb 3c 7f b3 72 bd 2b b8 98 3b f3 a6 44 bc
       0.022946863 -0.059253212 0.0046606264 -0.012002694
000180 e8 8d 39 3c 80 ed 89 bc 00 e7 94 bc 32 91 ca bc
       0.011325337 -0.016836882 -0.018176556 -0.024727438
000190 46 81 49 bd 6a e6 47 bc f3 41 7c bb a4 ae d6 ba
       -0.04919555 -0.012200931 -0.0038491457 -0.0016378951
0001a0 13 d2 95 3c 1e ce 9a bc 4b e5 2a bc 8d bd 6d 3c
       0.018288648 -0.018897112 -0.010430644 0.014510524
0001b0 15 fc 2c bd ea 35 b0 bc 23 ea 7d bc 9f 98 0d bd
       -0.04223259 -0.021510083 -0.015497717 -0.03456938
0001c0 e0 57 de 3c b6 24 ee bb 41 c8 29 bd 9a 96 28 3b
       0.027141511 -0.00726756 -0.041450743 0.002572453
0001d0 dc 67 dd bc f5 7d d1 bc cb 3f f1 3b e8 f8 36 bc
       -0.027027063 -0.025572756 0.007362341 -0.011167742
0001e0 9c bc a4 bc 50 6a 03 bc cc 02 37 3c ca 87 07 3c
       -0.020109467 -0.008020952 0.0111701 0.008272121
0001f0 c8 f1 53 bc 2e 0f 93 bb eb 2a d0 bb 16 57 eb bb
       -0.012936063 -0.0044878935 -0.0063527725 -0.0071820123
000200 bb 03 36 bb bf fc 87 bb c7 f3 24 3b c2 31 35 3c
       -0.002777322 -0.0041500027 0.0025169717 0.0110592265
000210 44 fb 32 bc 57 27 93 bc dc c5 87 bb c6 32 ff bc
       -0.010924164 -0.017963095 -0.0041434597 -0.03115214
000220 41 56 00 bd 58 33 11 bd fd 5f 1d bd 6d fd dd 3c
       -0.031332258 -0.035449356 -0.03842162 0.027098382
000230 6f 50 0e 3d 7b 64 06 bd fa cb a8 3c f6 5f de 3c
       0.034744676 -0.03281067 0.020605076 0.027145367
000240 7e 12 78 bc b2 75 01 bd cc 4a 67 bc 6c 97 9d bc
       -0.015141128 -0.031606384 -0.014116954 -0.019237243
000250 a3 ac fb 3b 05 53 6d bc c2 94 e2 bc 69 86 bf 3c
       0.007680492 -0.014485125 -0.027658824 0.023379521
000260 87 24 b2 bb 88 83 25 bc 22 4f fc bc 09 2b 06 bc
       -0.0054364833 -0.01010216 -0.030799452 -0.008188971
000270 a2 ec ae bc 9d 19 8f 3c 63 2f 02 3d c4 39 d6 bc
       -0.02135307 0.017468268 0.031783473 -0.026150592
000280 85 1c 95 bb 05 1c 6d 3b 9c f2 9f bc d0 0a 18 bd
       -0.004550519 0.003618003 -0.019524865 -0.037119687
000290 fa bb 27 bc b3 8e 66 3c 81 c2 1f 3c a6 38 a9 3c
       -0.010237688 0.014072108 0.009750963 0.020656895
0002a0 94 5c 8e bc 04 e5 0b bc f9 8f 07 3c 03 f0 54 bc
       -0.017378129 -0.008538488 0.008274072 -0.012996676
0002b0 9d f3 d2 3c c9 30 1c bd 29 f6 cd bc 5e 9f 6a 3c
       0.02575093 -0.038132463 -0.025141792 0.014320223
0002c0 14 84 6e 3c 9b e7 7f bc f6 6d 46 3c 97 13 eb 3b
       0.014557857 -0.015619184 0.012111178 0.007173966
0002d0 c2 91 9e 3c 76 d7 a6 bc 10 8d 67 bd 7e 28 fc 3c
       0.019356612 -0.020366412 -0.056531012 0.030781027
0002e0 71 df 74 bc e9 72 66 bd 7e c9 25 bd 5b ba 29 bc
       -0.014945851 -0.05626193 -0.04047536 -0.010359372
0002f0 16 b9 2c 3b 4b 1c 31 bd 41 95 9d 3b b3 7d 40 3c
       0.0026355437 -0.043239873 0.004809052 0.011748719
000300 ba f0 29 bd 50 e7 c8 bc b6 51 85 3c 22 8f 06 3d
       -0.04148934 -0.02452436 0.016274314 0.032851346
000310 ac eb 47 bd fb 24 8d bd 29 02 2e bc 96 eb 51 bd
       -0.04880874 -0.06891819 -0.010620632 -0.051250063

fc2.weight f4 [100, 200]
000000 78 dc 6e 3d dd 26 ce 3b b9 66 b2 3d 07 5c d9 bb
       0.058315724 0.006291254 0.08710999 -0.006633285
000010 d8 47 d7 3c 8f 51 f3 bd 97 dd 7e bd 50 92 9b 3d
       0.026279375 -0.118807904 -0.062223043 0.07596266
000020 e0 1a 46 3a 67 30 65 3d 7f 00 cf b8 bb 46 2b be
       0.0007557105 0.055954363 -9.8706216e-05 -0.167262
000030 2f f9 92 3d 6a 89 f1 bc 5f 13 2b bc 62 8c e9 bc
       0.07176434 -0.02948447 -0.01044163 -0.028509323
000040 46 7c d4 bd 12 ce 2d bd 68 75 58 3b 5a 5a bf bc
       -0.10375266 -0.042432852 0.0033028964 -0.023358513
000050 f5 e7 81 bd 20 45 4e ba 5f 50 3d bc 80 80 9f 3c
       -0.063430704 -0.0007868577 -0.0115548065 0.019470453
000060 5d 7f 7b 3c 94 f1 89 bd 5b 63 fe 3d 15 15 d0 bb
       0.01535019 -0.067355305 0.12421294 -0.0063501694
000070 4a 8e a8 bc 63 c8 90 bd 69 ec 76 bc c0 94 a2 3b
       -0.020575661 -0.07069471 -0.015071013 0.00496158
000080 34 1f c0 3d 56 c5 68 3d 45 d5 d4 3c f7 64 3a bc
       0.093809515 0.05682882 0.025980601 -0.011376611
000090 26 f8 c3 3d 87 83 c2 bc a2 ef d1 3d 45 dd c3 3c
       0.09568815 -0.023744358 0.102507845 0.02390922
0000a0 1b 47 37 3c f4 68 95 3d 1e 4b 73 bd 52 84 72 bd
       0.011186386 0.07295409 -0.05939781 -0.05920822
0000b0 94 6e 47 3d ab 9c 97 bd 4e 20 7f bd 46 60 93 3d
       0.04868944 -0.07402929 -0.062286668 0.07196097
0000c0 5e e5 92 bc 19 cb 73 3d e8 71 d0 3d c3 8e c4 3d
       -0.017931636 0.05951986 0.10177976 0.09597542
0000d0 5f 84 c8 3c 9f 5d a1 bc a7 7c 43 bb 77 fe 51 ba
       0.024477182 -0.019697962 -0.0029828937 -0.00080106355
0000e0 7d 54 82 bd e6 ce cd 3c 6d d2 51 3d 51 ba 1a bd
       -0.06363771 0.02512307 0.05122607 -0.03777534
0000f0 85 1f d0 bc 7c 13 80 bd e9 c7 bb 3b 9f aa 3d 3c
       -0.025405655 -0.06253716 0.0057306183 0.011576324
000100 3c 22 e0 bc fb 6f 91 3d 54 af ca 3d fe 8a 7b 3c
       -0.027360074 0.07101437 0.098967224 0.015352963
000110 63 b2 ee bd 05 e6 ec ba fd 8d 12 bb 24 a0 00 3c
       -0.11655118 -0.0018073922 -0.0022362464 0.0078506805
000120 92 46 82 bc cf 89 b7 bd a1 5a ad 3c 66 9c 71 bc
       -0.015902791 -0.08961832 0.02116138 -0.014746761
000130 ec e5 80 3d eb 98 1d bd 76 56 f3 bc e3 30 df bd
       0.06293854 -0.038475912 -0.029704314 -0.10897996
000140 4e 66 b8 3c 9e a9 07 bd 18 6c 0e 3d 7a 55 3f 3d
       0.02250972 -0.033120744 0.034771055 0.046712376
000150 70 67 94 3d 41 c4 8f 3c 06 f9 48 bc 29 83 8c bd
       0.07246292 0.017549636 -0.012266403 -0.06860954
000160 0d 4e cf bb 40 99 37 3d 81 d2 2f 3c 1a 8a eb bc
       -0.006326443 0.044823885 0.01073134 -0.028752375
000170 19 af aa bd 59 33 0d 3d 90 5f 99 3d 64 d6 fa 3b
       -0.083341785 0.034472797 0.0748893 0.007654952
000180 b4 3a 35 3d c8 ab 9f bd 9c 63 a5 bd 3b 08 86 3d
       0.044245437 -0.077964365 -0.080756396 0.065445386
000190 87 22 84 bd c5 bd 37 3d 65 7f 90 3d e2 dd 18 3d
       -0.06451898 0.044858713 0.070555486 0.03732098
0001a0 59 dc 03 3d 5b 8b 0c 3d 54 a9 d6 bd 78 ed 57 bd
       0.03219256 0.034312587 -0.104815155 -0.052716702
0001b0 d2 40 9d bd c3 0a 4d bd 2d 01 0a 3e 37 bb 6b bc
       -0.07678379 -0.05005909 0.13477011 -0.014387897
0001c0 08 28 9b 3d 08 03 51 bd dc f8 24 3c d5 7a ab bd
       0.07575995 -0.05102828 0.010069098 -0.08373038
0001d0 d6 b1 74 bd c1 e0 85 bc cd 42 78 3d d0 38 dd bc
       -0.05973991 -0.016342523 0.06061058 -0.02700463
0001e0 29 25 87 bd 00 dc dd 3c 3e 7a b7 3c 46 e2 57 3c
       -0.065988846 0.027082443 0.022397157 0.013176506
0001f0 f3 c7 86 3c 46 dd ea bc df a7 41 3b 10 7b d4 3d
       0.016452765 -0.028669965 0.0029549522 0.10375035
000200 45 e2 31 3d e1 53 f0 3c 3a 82 9e bd 74 84 65 3d
       0.043428678 0.029336872 -0.077396825 0.05603452
000210 4a bc 42 3d dc 5f 00 3e 9a d2 7b 3c 7f fc 1d bc
       0.047542848 0.12536567 0.015370036 -0.009642719
000220 68 d2 ea bd 6f 06 da bb 5b 97 2b 3c 13 48 99 bd
       -0.11465913 -0.006653599 0.010473098 -0.0748445
000230 a8 59 49 3c a1 cb ef bc c7 f4 a1 bd 4d 80 c7 bd
       0.012289442 -0.029271903 -0.07908016 -0.09741268
000240 44 1e 0a 3e e4 79 2b be b3 b6 84 bd 00 93 02 bc
       0.13488108 -0.16745716 -0.064801596 -0.007969618
000250 8e cd 57 bd 9c 70 c8 bb 2f 5d a0 3d 1a 4c 66 bc
       -0.052686267 -0.0061169397 0.07830273 -0.01405623
000260 13 d7 c3 3d dc 01 f2 3c ab 16 2b bd 3a 64 eb bd
       0.095625065 0.029541902 -0.041769665 -0.11493726
000270 6c dc 00 bd c2 df 58 bd 4f 8c b2 bd a3 81 8b bd
       -0.03146021 -0.052947767 -0.08718168 -0.068118356
000280 d6 dd 83 3c 15 b2 05 3c 2e 78 07 3d 93 9c 6b bc
       0.01609699 0.008160134 0.033073597 -0.014380592
000290 9e af 0b bc fb 0b a8 bc 95 b5 b4 3d 72 b6 08 3e
       -0.008525757 -0.020513525 0.088236965 0.13350847
0002a0 8f f3 b6 3d 02 ea 41 3e f1 82 9e 3d 9a ec 9f bd
       0.08933174 0.18936923 0.07739819 -0.078088
0002b0 e3 72 52 bd 48 3e 60 bd 80 60 4e 3d 71 9f 20 bc
       -0.051379096 -0.054746896 0.050385 -0.009803639
0002c0 8c 09 f0 3c c1 4e 17 3d d0 3f e5 3b c1 ae 89 3d
       0.029301427 0.03694034 0.0069961324 0.06722785
0002d0 d1 80 0a bc c0 f8 5b bd b3 cb a1 bd d7 af 2a bc
       -0.008453564 -0.053704023 -0.07900181 -0.0104179
0002e0 1b e1 ad 3c 6d eb 02 bd 04 8c 8e 3d 4c 54 86 bd
       0.021225503 -0.0319628 0.069602996 -0.06559047
0002f0 3c c1 9d bd b1 51 c5 bc b0 bd db bc 67 31 92 ba
       -0.07702872 -0.024086805 -0.026823848 -0.0011153639
000300 25 c8 92 3d 26 2a aa 3d f7 1b 9a 3d 9d 60 93 bd
       0.07167081 0.083088204 0.07524865 -0.07196162
000310 f3 f9 c4 bc 01 ff 4d 3d 10 6d 15 3d c1 2e 91 bd
       -0.024044966 0.05029202 0.036480963 -0.07088996
000320 d1 6c 9d 3d 5b d5 01 bd a3 2a bf 3c 2f f1 b9 bc
       0.07686771 -0.031697612 0.02333576 -0.022698013
000330 f8 e4 e2 3c 02 45 ef bd 5f 76 e7 bd a3 24 20 3d
       0.027697071 -0.11683084 -0.11301874 0.03909744
000340 a1 f8 1a 3e 69 9e d8 3d 09 dc 43 3c f2 64 00 be
       0.15133907 0.10577089 0.011954316 -0.12538508
000350 a2 08 c5 3b ca ac a4 bd 6c 36 d1 bd 3e 32 ff bd
       0.006012992 -0.080407694 -0.10215458 -0.12460755
000360 24 2c 9e ba a3 08 22 bd 6f 48 7a bc 8d da 84 3c
       -0.0012067598 -0.039559018 -0.015276059 0.016217494
000370 05 bc aa 3c 83 ac 6c 3b 04 d9 47 bd 03 b7 11 3d
       0.020841608 0.0036113567 -0.048790947 0.035574924
000380 e7 0b 90 3c 56 98 56 3d 37 6c 0f 3d 22 23 f3 bc
       0.0175838 0.052391373 0.03501531 -0.029679839
000390 68 3e 10 bd e5 9c 87 3c 35 9a 91 bc 32 ce aa bd
       -0.035215765 0.016554305 -0.017773727 -0.0834011
0003a0 2d 09 32 3a bb f4 5f 3d 1c 2e 8d bc 4d 59 02 3c
       0.00067915284 0.054676753 -0.0172339 0.007955861
0003b0 b6 14 9f 3d 93 90 36 bd 29 9c 6a 3d 3c 02 11 ba
       0.07767622 -0.04457147 0.057277832 -0.0005531644
0003c0 41 ed f6 3c c5 4a 67 bd ea bb 60 bd 64 da a5 bd
       0.030142428 -0.05646779 -0.05486671 -0.08098295
0003d0 79 0b f8 3c c9 cc f3 3c d2 c3 94 bd 75 e2 86 3d
       0.030278908 0.029760735 -0.07263912 0.06586162
0003e0 46 94 36 bd 9c 1a 25 3d 8d 2f dd 3d 2a 2c ff 3b
       -0.044575 0.04030858 0.10800085 0.007787247
0003f0 65 2a 21 3d a5 a8 12 bd fc a2 54 bb a5 70 a9 bd
       0.03934707 -0.035805363 -0.003244578 -0.08273438

fc2.bias f4 [100]
000000 ec 81 e6 bc 53 58 4e bd e1 93 ba bd af 7c 83 bd
       -0.028138123 -0.0503772 -0.09110237 -0.06420266
000010 72 3f d2 bd 60 33 74 bd 6a 11 f0 bc 69 6e ac 3a
       -0.102660075 -0.059619308 -0.029305179 0.0013155463
000020 03 7e b6 3d 22 17 94 bb e9 40 43 bd 17 72 38 bd
       0.089107536 -0.004519359 -0.047669325 -0.04503068
000030 e6 2d 0d be 8e ee 9e bc f9 a9 32 3d fe a5 20 3c
       -0.1378704 -0.019400861 0.04361913 0.009805201
000040 99 13 06 3d 93 6f 22 bd cf b6 27 bd 16 97 29 bd
       0.032733534 -0.039657187 -0.040945824 -0.041403852
000050 6d 8c fc 3c ad cb c8 3c 0e 07 fb 3b 22 22 87 3b
       0.030828679 0.024511183 0.007660753 0.004123942
000060 04 57 a3 3c ec c8 d8 ba cd ca 96 bc 0b 9d e5 bd
       0.019938953 -0.0016539372 -0.01840725 -0.11211594
000070 5c 37 ee bd 15 14 1e 3e 0e 61 24 bc 27 b9 69 3b
       -0.11631653 0.15437348 -0.010032905 0.0035663338
000080 2d 85 4e bd 05 96 f0 bd 99 56 22 bd 62 89 47 3d
       -0.050419975 -0.11747364 -0.039633367 0.048715003
000090 b4 ff 96 3d b4 56 cf bd c5 53 52 3c 59 d4 bd 3d
       0.0737299 -0.10123959 0.012837355 0.09269018
0000a0 9b 18 39 bd ee fb 71 3d cf 26 18 bc 91 51 69 3d
       -0.04518948 0.05907815 -0.009286596 0.056962553
0000b0 fc 3c 68 3b ad e4 55 3c fa 05 91 bd 28 81 79 bd
       0.003543674 0.013055009 -0.07081218 -0.06091419
0000c0 77 a9 77 3b 54 41 39 3c f1 7f 70 bd 3a 01 c7 3c
       0.0037790218 0.011307079 -0.058715764 0.024292577
0000d0 95 e9 a2 bd 48 5f 8f bc 93 4e b5 bd 24 bc c3 bd
       -0.079547085 -0.017501488 -0.088528775 -0.09557369
0000e0 3e 4c b1 3d e0 0e 86 bd 75 93 5d bd 51 2b 9a 3d
       0.0865712 -0.06545806 -0.054095704 0.07527793
0000f0 c2 0e 40 ba a0 6f ce 3d 61 bf 1a 3d b5 c6 c5 bc
       -0.0007326418 0.100798845 0.03778017 -0.024142602
000100 bd b1 9e bc d3 70 7a bc 1c ec 86 bd 35 83 94 3d
       -0.019371862 -0.015285688 -0.06588003 0.07251588
000110 3c 97 9c 3d 3b a2 77 3d 3d 44 e3 3d 96 77 10 3d
       0.07646033 0.06045745 0.11097 0.035270296
000120 95 34 d0 3b 78 25 1c 3d 73 e5 c8 bd d8 45 e3 bd
       0.0063539245 0.03812167 -0.09809389 -0.11097306
000130 fb 09 a3 bd 86 03 9e 3a f4 54 32 bc ae 02 89 3a
       -0.07960888 0.0012055493 -0.010884512 0.0010453069
000140 30 5b b9 bb 10 8c d9 bc 32 00 3a 3e 2f c4 86 3d
       -0.0056566224 -0.026556045 0.18164137 0.06580388
000150 40 72 d0 bc 73 aa 82 bc 5b 41 0b bd 54 0a e6 bb
       -0.025445104 -0.015950417 -0.033997875 -0.007020274
000160 eb 02 95 3b ea e7 af 3d e9 1e 84 3d bb 2f d5 bd
       0.004547467 0.08589156 0.06451208 -0.104094945
000170 73 f0 e0 3b e4 07 a7 3d 74 c5 69 3d 1f f7 20 3e
       0.0068646013 0.08155802 0.05707307 0.15719269
000180 7f 1b 3c 3d 5b e3 87 3d a7 9a 84 bc 1f 4d ea bd
       0.04592466 0.066351615 -0.016187025 -0.11440491

fc3.weight f4 [60, 100]
000000 ee 90 04 be bc c7 1f be 46 34 1d be cc ce 44 3e
       -0.12945911 -0.15603536 -0.15351972 0.19219512
000010 01 fa 28 3e 36 c2 13 3e 0a 00 42 3c 03 31 13 3e
       0.16501619 0.14429554 0.01184083 0.14374165
000020 a7 0a d1 3d 01 20 36 be 4d 61 29 bd 2d e6 89 bd
       0.1020711 -0.17785646 -0.04135256 -0.06733356
000030 48 7e 33 3e aa 57 02 3e 41 af e3 bc a9 a2 b7 3d
       0.17528641 0.12728754 -0.027793529 0.08966572
000040 c4 75 f1 bd a5 d8 54 3d f5 38 71 be 73 66 96 bd
       -0.1179004 0.05196442 -0.23556884 -0.073437594
000050 6c 31 82 3d 0b 84 f5 bc 39 2f 09 3c 98 b6 2a 3e
       0.06357083 -0.02997019 0.008373075 0.16671216
000060 f4 a1 ff 3d 10 9d d8 bd ae 26 1c 3e 8e 50 a5 bd
       0.12482062 -0.10576832 0.1524913 -0.08072005
000070 95 5e 02 be bb 1a d9 3d 04 d0 b0 3d c6 05 58 be
       -0.12731393 0.106008016 0.08633426 -0.21095952
000080 25 5d 26 3e 1c 98 50 bd 69 e8 d6 bd b3 1e 5b 3e
       0.1624647 -0.050926313 -0.104935475 0.2139843
000090 4a 3b 67 bd 95 c6 a5 bd 16 06 01 bd ac c5 28 3e
       -0.056453027 -0.08094517 -0.031499945 0.16481656
0000a0 29 fa 96 3e 44 10 39 be 5d 11 10 3e e7 82 fa 3c
       0.29487732 -0.18072611 0.14069124 0.030579997
0000b0 74 0c 2c be a9 b3 00 3e a8 42 cd 3d 32 32 0f 3e
       -0.16801625 0.12568535 0.10022479 0.13983992
0000c0 0f e6 12 3e fa 44 a9 3c f8 5c 28 bd b5 b8 c7 bd
       0.14345573 0.020662773 -0.041104287 -0.09752027
0000d0 c6 a8 89 bb 6d 4e 26 3d 76 1e 06 be ee b9 89 3d
       -0.0042010276 0.040602136 -0.13097557 0.067249164
0000e0 c0 30 17 3e b7 5b 21 3d c1 4a 2d 3d 23 d4 78 3c
       0.1476469 0.039394107 0.04230762 0.015187296
0000f0 cc e0 e0 bd da e0 52 be be 4b ac bd d8 98 d0 3d
       -0.109803766 -0.20593587 -0.08412884 0.10185403
000100 60 11 f3 bd 1f ec ca bc 8a 5c e0 3d a6 66 6f be
       -0.118685484 -0.024770794 0.109551504 -0.23379001
000110 d5 b8 da 3d b3 48 b7 3d b0 9a e5 3d 54 28 a5 3d
       0.10679785 0.08949413 0.11211145 0.080643326
000120 40 81 c2 3d 53 6c 96 3d b1 88 38 3d c3 dc 6c 3d
       0.09497309 0.0734488 0.045052234 0.057827722
000130 50 e9 95 bd b3 52 1c be 05 c1 12 3c 9f 7f c9 bd
       -0.073198915 -0.15265922 0.008957152 -0.09838795
000140 08 c6 08 be ae cd 6c bd df 95 81 3d cb c7 48 be
       -0.13356793 -0.05781334 0.06327414 -0.19607465
000150 22 d0 bb 3d 05 6d 3f 3e d3 cd cd bd 6a 1b 8a 3d
       0.091705576 0.18693931 -0.100490235 0.0674351
000160 22 46 5d bd 4a 22 2d 3e cf 06 36 3e 29 ac c4 bd
       -0.054021962 0.16907611 0.17776035 -0.096031494
000170 a3 ae 1e bd a0 c0 98 3d 45 d6 93 bd 58 ca a2 3d
       -0.038740765 0.07458615 -0.07218603 0.0794875
000180 b2 c8 15 be c9 50 66 bd aa 0c f4 bd e8 3a 28 3e
       -0.1462734 -0.056229386 -0.11916478 0.16428721
000190 25 e0 09 be 06 90 82 bc 71 c9 bc 3c 13 ad 27 bc
       -0.1346441 -0.015937816 0.023045273 -0.010234135
0001a0 a0 b2 ff bc 34 e7 31 be c8 cd d8 bd 0d 9b 67 be
       -0.031213105 -0.17373353 -0.10586125 -0.22617741
0001b0 86 3b dd bb 91 70 24 bd fb 37 87 bd a7 0c d3 3d
       -0.0067514805 -0.040146414 -0.06602474 0.103051476
0001c0 b9 4b d6 3c 8a ac 0d be 25 08 ce bd 84 01 20 be
       0.026159154 -0.1383535 -0.10060147 -0.15625578
0001d0 89 3c a1 bd 92 4c 25 3d b0 ad 67 bd 0b b1 c8 3d
       -0.07872874 0.040356226 -0.056562126 0.09799393
0001e0 4d 65 28 be 64 04 81 bc 49 be 1d be 22 a8 85 bc
       -0.16444893 -0.015749164 -0.1540462 -0.016315524
0001f0 b7 0d ea 3d c9 9e 08 3d 78 56 c5 3d 3a 04 f3 bd
       0.11428397 0.033354554 0.09635633 -0.118660405
000200 2c ee 07 be e2 6d 57 bd 08 55 c1 bd 33 92 0b be
       -0.13274449 -0.052595027 -0.094400465 -0.1362999
000210 86 b8 cb 3c 25 71 4a bd 9b fb 50 bd e6 2d 39 bc
       0.024868261 -0.04942431 -0.0510212 -0.011302447
000220 b6 9e 1f 3d dd 0f 1b 3e aa 90 ac 3d a5 8c 15 3d
       0.038969718 0.1514277 0.0842603 0.036511082
000230 69 38 a2 bd e6 d9 f2 3c 36 2e a4 bc 1a 70 de 3b
       -0.07920916 0.029644918 -0.020041566 0.006788266
000240 db b0 d5 3d 61 57 16 3e 76 8b b6 3d 58 98 7b 3d
       0.10434123 0.1468177 0.08913319 0.061424583
000250 d6 48 e2 3d b8 18 ff 3d 10 d8 ef bd de f7 e0 bd
       0.110490486 0.124558866 -0.117111325 -0.10984777
000260 43 70 7c bd a7 9e 94 3d 47 7d 29 bd 45 b0 43 b8
       -0.0616305 0.07256823 -0.04137924 -4.6655787e-05
000270 8b 6e aa 3d ab 91 5d 3e a6 51 82 bc 7d 5e 57 bd
       0.08321866 0.21637599 -0.015908074 -0.052580345
000280 a9 a1 0e be 4a 05 1d 3e c0 ed 30 3d 62 43 ce bd
       -0.13928856 0.15334049 0.043195486 -0.10071446
000290 96 4c 20 be c7 0c bc 3d 92 6d d1 bd c2 64 24 3d
       -0.15654215 0.091821246 -0.10225977 0.040135153
0002a0 2d 7f 08 be cc 40 41 bd 07 4b ea 3d 4d 44 5e bb
       -0.13329764 -0.047180936 0.114400916 -0.0033915222
0002b0 2e 7b 33 3e 8e ea 9f bd 56 86 ce bd 1b c8 a6 3d
       0.17527458 -0.0780841 -0.10084216 0.08143636
0002c0 3c f1 0b 3e 7c a4 2d 3d 9a 00 d1 3d 77 d9 0e 3e
       0.13666242 0.042393193 0.10205193 0.13950144
0002d0 43 8c 43 3d ea 45 7a 3d e6 5b 1c 3e 96 e4 93 3d
       0.047741186 0.06110183 0.15269431 0.07221334
0002e0 e5 1d 13 be e0 b3 57 bc 3e 60 01 3e f0 89 c4 bd
       -0.14366873 -0.013165444 0.1263437 -0.09596622
0002f0 3f 18 b2 3d 08 c7 0a bc c6 52 e8 bd c1 d5 3a 3d
       0.08696031 -0.008470304 -0.11343913 0.045614008
000300 3b 1d 10 3e dc 50 99 3d 2c a0 0f 3d 90 b8 35 3c
       0.1407365 0.07486126 0.03506486 0.011091366
000310 2d e7 c5 3d 17 05 80 3d 32 60 43 be ea 23 4d be
       0.09663234 0.06250971 -0.19079664 -0.20033231
000320 2c 7f 18 3d 30 b5 17 be c4 f9 5b be d5 6d 25 3e
       0.037230656 -0.14815211 -0.21481997 0.16155179
000330 69 68 ed 3c a3 a9 25 3e eb df 9d bb 0b 1b 2b 3e
       0.02898045 0.16177993 -0.004817953 0.16709535
000340 49 03 8b bd 63 78 af bd 13 60 4a bd 19 c4 87 3d
       -0.06787736 -0.08567884 -0.04940803 0.066291995
000350 1a d6 78 3d cd cc a7 3d 27 03 dd bd 49 77 1a 3e
       0.06075106 0.081933595 -0.10791617 0.15084566
000360 60 8c 7e bd 43 64 8e bd fd 5b 37 bd 41 08 92 3d
       -0.06214559 -0.06952717 -0.04476546 0.071304806
000370 d7 86 04 3e 84 7f c4 bc 9c c0 3d 3e 60 b4 e1 bd
       0.12942062 -0.023986585 0.18530506 -0.11020732
000380 fc b9 90 3d 4a c1 97 bd 8e bf b1 3d 21 ed e1 3d
       0.07066724 -0.07409914 0.08679114 0.11031557
000390 1b 87 b1 bc 2a 8e b3 bd 10 e2 a0 bc ae 66 f3 bc
       -0.021670869 -0.0876735 -0.019639045 -0.029712047
0003a0 e4 1b 0c 3e cc 1d 65 3c ce 23 c1 bc 1f ac 49 be
       0.13682514 0.013984155 -0.023576643 -0.19694565
0003b0 5f 2d ea bc 7d 39 fd bd f8 aa 11 3e cd a6 cc 3d
       -0.028586088 -0.12364481 0.14225376 0.09992752
0003c0 55 23 9d bd 96 3a a0 bd da 8f 4d b9 fb 24 1f bd
       -0.07672755 -0.078236744 -0.00019603912 -0.038853627
0003d0 00 05 d5 3d 1d 35 0b bc 51 a7 49 be 6a bd b7 bc
       0.10401344 -0.00849655 -0.19692732 -0.022429187
0003e0 46 dc 3e bd ae a1 8d bd 10 e1 01 3d a8 64 f6 b8
       -0.046596788 -0.069156036 0.031708777 -0.00011748943
0003f0 01 21 60 bd 27 8b 1f bb 45 77 d7 bd 78 45 1b 3e
       -0.054718975 -0.0024344416 -0.10520796 0.15163219

fc3.bias f4 [60]
000000 b3 92 da 3d d5 7a 15 3e d1 cb 08 3d 75 dc 1c 3e
       0.10672512 0.14597638 0.0333975 0.15318473
000010 61 0a 98 bd 32 e3 99 3c 4f 33 18 3e 2b 43 38 3d
       -0.074238546 0.018785093 0.14863323 0.04498593
000020 61 1b 3f 3d df 1f ee bc a8 b6 e8 bd ef 5d 42 3e
       0.04665697 -0.029067932 -0.11362964 0.18981145
000030 7a 1c bb bc 8a 4d 08 3d 8b 70 b6 bd 04 e6 28 bd
       -0.022840727 0.033277072 -0.089081846 -0.041234985
000040 ae 79 c8 bd 36 91 65 3d e7 7c eb bc 25 c0 33 3d
       -0.097888336 0.056046687 -0.028746082 0.043884415
000050 f0 ae 25 3e 0d dd f4 3c c0 90 85 3e f4 df b1 bd
       0.16180015 0.029890561 0.26086998 -0.08685294
000060 83 35 31 bd 63 8d 15 3e 7b e9 88 3d 22 8d 13 bd
       -0.043263923 0.14604716 0.06685158 -0.036023267
000070 59 87 f0 3c 52 73 70 3d 5a 79 5e 3d c7 a5 81 bc
       0.029361414 0.058703728 0.05431495 -0.01582612
000080 46 25 da 3d bd 66 f9 3d 83 aa e2 3c 5c 9e f9 3c
       0.106516406 0.12177799 0.027669197 0.03047102
000090 dc b2 82 3c f6 ce 02 bd a9 02 00 3d 59 d8 09 3e
       0.015954427 -0.031935655 0.031252537 0.13461436
0000a0 1d b1 b0 bd a5 56 41 3d b4 2e 3e 3e c7 9f 2d be
       -0.08627532 0.04720177 0.18572503 -0.16955481
0000b0 d4 58 e4 3c d5 a2 6b bd c4 e7 0f 3e 3a d9 71 3e
       0.027874388 -0.057528336 0.14053255 0.23618022
0000c0 31 7d 2e 3d 32 c2 51 3d a4 c2 97 bd f9 74 ec bd
       0.04259986 0.05121059 -0.07410172 -0.11545748
0000d0 dc 93 4f 3e 95 cd 40 3d db 87 00 3e 2b 83 17 bd
       0.20271248 0.04707106 0.12551825 -0.036990326
0000e0 c2 5b 63 3d ed 89 0f bc 5a 48 f6 3d 5e b7 11 bd
       0.05550743 -0.008760911 0.12025519 -0.035575263

fc4.weight f4 [30, 60]
000000 3c 31 c6 3e 24 69 c1 3d 0d b6 b6 bd 52 88 3a 3e
       0.38709438 0.09443882 -0.08921442 0.18216065
000010 22 3f 7e 3d 90 82 1b 3d be 66 00 3e 32 c5 73 3e
       0.062071927 0.03796631 0.12539193 0.23805693
000020 1c 42 12 bd f3 3f b9 bd b4 29 39 3e 78 ef 06 3e
       -0.035707578 -0.090454005 0.18082315 0.13177288
000030 e9 f1 a5 bd 99 9e 36 3e 9a 86 9e bd 2b f9 0b 3e
       -0.08102781 0.17833938 -0.07740517 0.13669269
000040 9d a7 32 3e 2a 5a 90 3c 56 a8 3d 3d 9d d3 f3 bd
       0.17446752 0.017621119 0.046303116 -0.119055964
000050 1b a7 59 3e b3 ad 94 3c b3 83 94 bc 23 36 c5 3d
       0.21255152 0.018149232 -0.018129205 0.096294664
000060 6d 96 9d 3e fe eb 4d bd d9 87 03 be 89 08 9a bb
       0.30778828 -0.050273888 -0.1284479 -0.0047007245
000070 9e ee 8e bd 1d f5 82 3e a7 b1 90 bd 11 b6 a4 bd
       -0.06979106 0.25577632 -0.070651345 -0.08042539
000080 f0 af 1e bd 3c dc 43 3e fc e7 9a bd 63 58 ae bd
       -0.038742006 0.19126981 -0.07563779 -0.08512952
000090 f2 73 5d 3d e1 36 f7 bd cd 43 72 3b e5 9a d9 bc
       0.054065652 -0.12071014 0.0036966682 -0.026563117
0000a0 d7 bc 17 bd db b9 d9 bd 76 b0 47 bd 0b f8 e2 3d
       -0.037045326 -0.10631152 -0.04875227 0.11082467
0000b0 e9 0a c5 bc 2b 03 9a 3d f1 1e ae 3d f3 dd b3 3c
       -0.024053054 0.075201355 0.08501995 0.02195642
0000c0 00 fa 0f 3d bf ba a4 bd 1f f6 18 be 91 c5 8b ba
       0.035150528 -0.080434315 -0.14937638 -0.0010663738
0000d0 7c 07 b0 3d 08 24 a1 bd cf 8c 01 3d 32 98 14 3e
       0.085951775 -0.078682005 0.031628426 0.14511183
0000e0 c7 23 40 bd e9 db b8 3d 7d cc 6d bd 20 eb c9 3b
       -0.04690912 0.090263195 -0.058056343 0.0061620623
0000f0 57 1f 3e 3e 83 33 e8 3d fc 3e d7 3d 0b bb 0a 3c
       0.18566643 0.1133795 0.1051006 0.008467446
000100 e2 49 91 3d 30 5f 61 3c 0e e2 77 be cc d6 14 3e
       0.0709417 0.013755605 -0.24207327 0.14535064
000110 d6 45 96 3d ae 4b 2b 3b e4 74 67 3d 67 63 8c be
       0.07337539 0.0026137638 0.05650796 -0.27419588
000120 e8 e0 d3 3d 7c 5b 89 3d 40 ef c4 3c 8b d8 10 3d
       0.10345632 0.067069024 0.024039865 0.03536276
000130 a6 d7 4a 3e ed 58 2e 3e 8a 94 cb 3b cc ca 20 be
       0.19808826 0.1702611 0.0062127756 -0.15702361
000140 55 ad ed bc 09 31 42 3d dc 3c 21 be bf c2 41 3e
       -0.029013315 0.047410045 -0.15745872 0.18921946
000150 6c 47 5c 3e e1 5f e8 3d 45 05 95 3e 44 16 dd bc
       0.2151162 0.113464125 0.29105583 -0.026988156
000160 43 3d 2c be c6 93 27 3d 3d 13 59 3e 10 d6 7b 3e
       -0.16820244 0.040912412 0.21198745 0.24593377
000170 d3 73 8f 3e e3 25 70 be 64 87 3b 3e 7e ba 88 3e
       0.28018054 -0.23451953 0.18313366 0.26704782
000180 b9 e1 85 bd 5c 0b 72 3e 71 a9 74 3d 15 d0 56 3e
       -0.06537194 0.23637146 0.059731904 0.20977814
000190 de 84 74 b8 7e c8 eb 3d 6f 9c ef 3c ae a1 64 bd
       -5.8297876e-05 0.1151285 0.029249398 -0.055818252
0001a0 e7 4d 5d 3e 59 86 63 bd b0 76 24 bd 3d 2f ef bd
       0.21611749 -0.055548046 -0.04015225 -0.11678932
0001b0 77 74 13 be 43 84 9d bd 62 ff 98 3d b5 79 5f 3e
       -0.14399897 -0.076912425 0.074705854 0.21823771
0001c0 b5 d2 83 3d f8 72 21 bd 28 9c 19 be ef 29 27 3d
       0.064366736 -0.039416283 -0.15000975 0.040811475
0001d0 ff ed 80 3d 25 a6 65 bc e5 61 9f bd f2 1c f7 bd
       0.06295394 -0.014016663 -0.07782344 -0.12066068
0001e0 64 04 f8 bc 86 b2 d8 bd 86 9f 91 bd 91 98 b2 bd
       -0.030275531 -0.10580926 -0.07110505 -0.08720506
0001f0 58 dd 97 bc 08 f1 14 3d 4e cd 73 3d 7d ca d3 bd
       -0.018538162 0.036362678 0.059521966 -0.10341356
000200 3a c5 bc bd f9 4c a3 3c 57 6b c7 3d 3b 38 0c 3d
       -0.092173055 0.019934164 0.0973727 0.034233313
000210 47 e7 82 bd 99 f1 ab 3d 6d a6 9a bd bb 21 a1 bd
       -0.06391769 0.083956905 -0.075512744 -0.07867762
000220 b4 25 6c 3d 5e 73 08 3d a7 e6 ac 3b 42 11 74 bd
       0.057653144 0.033313148 0.0052765193 -0.05958677
000230 c4 7b be bd 12 e9 b4 bd 74 40 ff bd b5 8e ad 3c
       -0.0930095 -0.08833517 -0.12463465 0.021186212
000240 56 a0 d5 3d 00 bc f4 bd c4 d7 e5 3d ce 24 3d 3d
       0.10430972 -0.11949921 0.11222795 0.046177678
000250 0a 93 cc 3d 43 91 2e 3d 83 7a 4e bd a1 5a c3 bd
       0.09988983 0.042619 -0.050409805 -0.095387705
000260 df 35 35 bd 41 a1 76 bc 7b 04 87 bc dc 5b e6 3c
       -0.04424083 -0.015053094 -0.016481629 0.028119974
000270 3f 60 00 be 4b 26 00 3e 16 1c 5c 3d 4e 55 c0 bd
       -0.12536715 0.12514608 0.053737722 -0.093912706
000280 ba 29 73 bd 9c 8d 00 3e 7d c9 81 3c 5f c4 d5 bd
       -0.059365965 0.1255402 0.015843147 -0.104378454
000290 29 52 4f bd af 81 03 be 18 42 de bd b5 37 91 bd
       -0.050615463 -0.12842439 -0.1085245 -0.070907034
0002a0 5b 87 66 bb 9f 02 01 3e 9b a1 ab 3d 6d 15 89 bd
       -0.0035175893 0.12598656 0.08380433 -0.0669354
0002b0 17 9c 06 be 6f 76 db 3c d4 48 b2 bd 52 fa 29 bd
       -0.13145481 0.026789872 -0.08705297 -0.04149849
0002c0 55 69 c3 3d 18 6a a5 3d 11 79 ad bd 0b 12 35 3c
       0.09541575 0.080768764 -0.08470357 0.011051665
0002d0 fb 20 1f bc 6d d2 f6 bd 6d f2 b3 bd a1 80 a8 3d
       -0.009712453 -0.12051854 -0.087864734 0.08227659
0002e0 db a5 77 3d a3 68 b7 bd 17 3c 00 bd 9b c8 78 3d
       0.060460906 -0.08955505 -0.031307306 0.060738187
0002f0 c4 32 d6 bd 94 8e e5 bc be 2c ac ba 8d 6f 44 3d
       -0.104589015 -0.028022088 -0.0013135893 0.047957946
000300 1e 9d 77 3c 9b 20 2e bd 76 17 65 3d 9d 27 cb bd
       0.015113143 -0.042511564 0.055930577 -0.09919665
000310 5f a1 f8 bd 4d 76 07 be 23 17 fc bd 69 e8 20 3d
       -0.12140154 -0.13228722 -0.123091005 0.039284144
000320 d3 f1 c8 3b 53 59 0d 3d 3e 02 0d 3d cb 40 a0 3d
       0.0061323433 0.034509014 0.034425966 0.07824858
000330 3c 48 9d 3d 72 8b c5 bd ea 8b b2 bd 9b ed f8 bd
       0.07679793 -0.09645738 -0.08718093 -0.12154695
000340 8e da 88 3c c0 2b b3 bd d6 99 a0 3d dc fa 05 be
       0.016705777 -0.08748579 0.07841842 -0.13083977
000350 02 32 82 3d 01 c5 20 3b a0 f2 43 3c c0 17 dc bc
       0.063571945 0.0024531486 0.011959702 -0.026866794
000360 21 70 9a bd fd d4 80 bd c3 11 91 3d ca 38 bf 3d
       -0.07540918 -0.06290624 0.07083466 0.093370035
000370 fb 40 d5 bb 36 7d a3 bd 32 e0 a8 3c f0 3b e2 3c
       -0.0065079904 -0.079828665 0.020614717 0.027616471
000380 26 11 bf bd ed 91 b8 bd 33 ab 0f be 17 d1 34 bc
       -0.09329443 -0.09012208 -0.14030151 -0.011036179
000390 30 cb 87 bc 1a 34 b5 3d 55 12 f7 3d 3f 9e 93 3d
       -0.01657638 0.08847828 0.120640434 0.072079174
0003a0 92 ce 42 3d c4 93 f9 bd f6 b9 62 bd fc 56 a1 3d
       0.047560282 -0.12186387 -0.055353127 0.07877919
0003b0 9e 84 c5 3c 00 f3 7b 3d d4 45 a5 bd 35 05 a2 3d
       0.024111088 0.06151104 -0.08069959 0.079111494
0003c0 42 7f 42 be a3 aa 20 3e 50 66 d6 bd 1b 9e 0e be
       -0.18993858 0.15690093 -0.10468733 -0.139275
0003d0 ed 7e 2b 3e 38 67 06 3e fc 38 2f 3b ba d6 24 be
       0.16747637 0.13125312 0.0026736846 -0.16097537
0003e0 7c 24 a3 b9 fd 3e 5a be 62 a7 eb 3d c5 57 1f 3d
       -0.00031116966 -0.2131309 0.11506535 0.038902063
0003f0 da 93 91 3e 4e fd 84 bd 5b a4 7c 3e 94 5b 85 3e
       0.28433114 -0.064936265 0.24672072 0.2604643

fc4.bias f4 [30]
000000 bd 05 5b 3e cb 5d 0a 3e b9 af d1 3d 1e 13 d7 bd
       0.21388908 0.13512342 0.102385946 -0.10501693
000010 2e 04 68 bc 8c f0 57 bc 9c 1b f1 3d 61 94 7f bd
       -0.014161153 -0.013179909 0.11772844 -0.062397365
000020 03 e9 25 be 33 0d 5a 3e ec dd 04 3d 4d 85 26 bd
       -0.16202168 0.21294098 0.032438204 -0.04065447
000030 ca 30 f6 3d 5e a4 2c 3e fe ca ca bc 94 29 55 3e
       0.120210245 0.16859576 -0.024754997 0.20816642
000040 a1 7e 9c 3e a8 f8 14 be 60 4b 16 3d ca 4c 8d 3e
       0.3056536 -0.1454798 0.036692977 0.27597648
000050 b3 81 8f bd 5b 53 03 be 19 2a b6 3d 92 45 e1 39
       -0.0700716 -0.12824766 0.08894748 0.00042967178
000060 39 37 07 be 20 19 2b be 6e 6e 5d 3b 91 7d 9a 3e
       -0.1320466 -0.16708803 0.0033787745 0.30173925
000070 b9 95 83 3d 11 c3 80 bd
       0.06425042 -0.06287206

fc5.weight f4 [10, 30]
000000 67 e2 70 3e dc 9a 9d 3d e5 eb 56 3d 75 40 dd 3d
       0.23523866 0.07695553 0.05247106 0.1080331
000010 8a a3 a1 be 3e c9 1a 3d 64 99 08 bf 92 40 20 3e
       -0.31570083 0.037789576 -0.53359056 0.15649632
000020 4d 55 3f 3e d4 45 b5 be 6d 45 37 be 5d 1a b4 be
       0.18684883 -0.35404837 -0.17897578 -0.35176364
000030 f4 75 8a be c2 d2 bd bd 01 9f 70 bc 79 79 e1 3d
       -0.27043116 -0.092687145 -0.014686347 0.11009497
000040 c2 34 c7 be da 63 5c 3e fb 2d 8f be 22 58 05 bf
       -0.3890744 0.21522465 -0.27964768 -0.52087605
000050 de 91 c3 bd b1 ee 2e be c4 fe a5 be 7b d5 68 3d
       -0.09549306 -0.17083241 -0.32420933 0.056844216
000060 0e b2 dd bd 7e 9e f3 3d f6 cc 99 3d 40 bb ee be
       -0.10824977 0.11895464 0.07509796 -0.46627235
000070 58 7c ef be ed 3c 9b bd 2c 25 15 bf 68 59 9c 3e
       -0.46774554 -0.0757998 -0.58259845 0.30536962
000080 04 d1 c2 bd 7d a4 8f 3d e1 b2 6a 3e 1a e5 cd be
       -0.09512523 0.070137955 0.229198 -0.40213853
000090 c6 4d 86 be a1 79 fb be a5 50 4e 3e d8 6e 8d 3e
       -0.2623121 -0.49116233 0.20147951 0.2762363
0000a0 d4 6c 48 be 7c e6 8d be ac b7 25 bd 87 fa dc be
       -0.19572765 -0.27714908 -0.040458366 -0.43159887
0000b0 2b 31 f2 bd 80 37 b9 be 09 ff cc 3d 55 dc 88 3e
       -0.11825784 -0.36175156 0.100095816 0.267306
0000c0 0d 25 06 be fd af a9 be a8 16 3c 3e 18 07 36 be
       -0.13100071 -0.3314208 0.18368018 -0.17776144
0000d0 6b a0 bd be 11 61 f6 be 42 d3 13 be d5 df 14 be
       -0.37036452 -0.4812093 -0.14436057 -0.1453851
0000e0 ff 58 eb be 64 ef 5c be 06 22 02 3e ae d4 0b 3d
       -0.45966336 -0.21575695 0.12708291 0.034138374
0000f0 85 8f 20 be 32 f0 f0 3d 92 ce 3a be be 4f 1e be
       -0.15679748 0.117645636 -0.18242863 -0.15460107
000100 ec 0f 7a 3e e7 18 db be 58 f0 8b be d9 c5 7d 3e
       0.24420136 -0.42792436 -0.27331805 0.24782504
000110 1a 79 dd be 19 e8 8b be ca 04 74 be 02 31 1f be
       -0.43256456 -0.27325514 -0.23829952 -0.15546039
000120 d0 5b 26 be 37 e1 85 be 96 9d 94 bb f7 ff b3 3e
       -0.16245961 -0.26148388 -0.0045353873 0.35156223
000130 a3 46 8c bd e7 51 01 bf e4 78 d3 be 4c ee 18 bf
       -0.068494104 -0.505156 -0.4130317 -0.5973861
000140 4e bb 28 be e7 66 f4 bd 46 4c c8 bd 9b b4 9d be
       -0.16477701 -0.119336896 -0.09780173 -0.30801854
000150 1a a9 c7 bd a6 18 89 be 40 29 0f 3e ef 42 22 be
       -0.097490504 -0.26776618 0.1398058 -0.15845846
000160 25 9c 24 3e ef 15 26 be df b7 a5 be 6f 54 6b be
       0.1607519 -0.16219305 -0.32366845 -0.22981428
000170 d5 ce c7 3c 93 03 83 bc b0 f4 de be 9d 5d 01 bf
       0.024390617 -0.015992915 -0.43546057 -0.5053347
000180 2d b9 8e be 1e 76 f3 3d 21 00 22 be de c9 f7 3c
       -0.27875653 0.118877634 -0.15820362 0.030247625
000190 e1 8b 7f be 00 0f 0f 3e 57 ee 8d 3e cb 82 6f 3e
       -0.24955703 0.13970566 0.277209 0.23389737
0001a0 e0 8c 98 bd 78 f7 7b be c1 3d 73 bd 63 ff de be
       -0.07448745 -0.2460612 -0.059385065 -0.4355422
0001b0 f4 0f c5 be d4 14 f4 3d bf e8 9c 3d 65 d5 3f be
       -0.38488734 0.11918035 0.0766158 -0.18733747
0001c0 70 9d 88 be 15 3a d8 be 5f d2 c8 bd 24 b8 97 be
       -0.26682615 -0.42231813 -0.0980575 -0.29632676
0001d0 e2 bf 5c be e6 67 f6 be 46 d2 17 3e 96 0f 8f bd
       -0.21557572 -0.48126143 0.14826307 -0.06985395
0001e0 6e 18 bd bc 1f ca 41 3d 4a 2d 2e 3e ec 4c e6 bd
       -0.023082938 0.0473119 0.17009464 -0.112451404
0001f0 39 18 90 bd 6a 07 9b 3e fb d7 22 3e 99 c4 d4 3d
       -0.0703587 0.30279094 0.15902703 0.103890605
000200 1b 86 1c bf 9c a1 94 be 8b fb 4c 3e ef ec 0c be
       -0.6114213 -0.29029548 0.20017831 -0.13762258
000210 c3 41 27 bf 40 02 45 bf 70 4f 14 be bd 60 60 be
       -0.6533472 -0.7695656 -0.14483428 -0.21911903
000220 cd 40 0e be f1 38 7c bd 92 46 bb be 0c 23 19 be
       -0.13891907 -0.06157774 -0.36577278 -0.14954776
000230 c8 68 ce 3d b3 50 59 bd a2 08 fc bb 9c 29 b5 be
       0.10078579 -0.053055476 -0.007691459 -0.35383308
000240 f0 51 45 be 58 97 6c be 3e 47 a2 be dd 05 11 3e
       -0.19269538 -0.23104608 -0.31694978 0.14162393
000250 11 55 8d be 2e 9a 86 be 3c a9 5c 3b c2 48 2c 3d
       -0.27603963 -0.26289505 0.0033670207 0.042061575
000260 b3 2f 90 3d c7 d6 20 be 47 80 e9 be a6 92 bf bd
       0.07040348 -0.15706931 -0.4560568 -0.09354143
000270 0a 30 1f be 30 13 b8 be 9f 2c ef be 6e 79 e9 be
       -0.15545669 -0.3595214 -0.4671373 -0.45600456
000280 5b a7 86 bc 28 3f 0a bd 0a cf 39 3e eb ca 83 3e
       -0.016437223 -0.033751637 0.18145385 0.25740752
000290 05 33 6b bc f0 2b 2b be 12 c5 e5 be 4c f3 8a be
       -0.014355426 -0.1671598 -0.44876915 -0.27138746
0002a0 ee 0e ee 3d fb 88 c0 3d ab 9d b7 be 98 de 3b 3e
       0.11623941 0.09401127 -0.3586248 0.18346632
0002b0 d1 68 9a 3d ee dc 94 be b7 6e 81 bd 0b b1 42 3e
       0.075395234 -0.29074806 -0.06319945 0.19012849
0002c0 1a 98 bf be 4c 23 82 be 10 ad a5 be 0f ab b6 be
       -0.37420732 -0.25417554 -0.323586 -0.35677382
0002d0 7f 7c e8 be a3 8c 18 bd 47 8e e3 bd 42 b4 b6 bd
       -0.45407483 -0.037243497 -0.111111216 -0.089211
0002e0 a9 14 cc 3d f9 78 b7 3d 13 51 16 bf ad 3a 28 bd
       0.09964878 0.089586206 -0.5871746 -0.041071583
0002f0 18 1f 81 be 07 f1 fc be 76 d8 03 bf 39 42 a2 be
       -0.25219035 -0.4940264 -0.5150217 -0.3169115
000300 b8 33 07 bf e5 63 56 be 9f 12 01 be 56 33 37 bd
       -0.5281329 -0.20936544 -0.1260476 -0.044726692
000310 73 05 ff be cd 41 6e 3e 93 bf 58 3e a6 62 5a 3b
       -0.49808845 0.23267289 0.2116683 0.003332296
000320 9d f3 89 be 89 9c 86 bd b0 2e 79 3e 18 eb 08 3e
       -0.26943675 -0.065728255 0.24334216 0.13370931
000330 12 25 28 3e 1e 46 4a 3d d9 4e 17 be 8f aa a4 3d
       0.16420391 0.049383275 -0.14776172 0.08040344
000340 f2 49 5d be 24 f2 5e be fb 30 7c 3d ed 39 2b bf
       -0.21610239 -0.21772057 0.06157015 -0.6688526
000350 fe c5 20 be 19 17 bc 3d 5a 01 8f 3e 48 4b 06 be
       -0.15700528 0.09184093 0.2793072 -0.13114655
000360 51 5c 81 be 37 be 56 3e 19 a7 fd bc fb f0 29 be
       -0.25265744 0.20970999 -0.030963467 -0.16595833
000370 10 84 54 3e ff f1 a3 bd 54 18 fd 3b 7b 2e 23 bf
       0.20753503 -0.080051415 0.0077238474 -0.637428
000380 f2 aa 07 be cc 13 03 bf 1f cc 27 3b 6a 53 ee bc
       -0.13248804 -0.5120208 0.0025603843 -0.02909251
000390 5c d0 a7 bd 66 eb 25 3e c0 b5 a1 be ea bc 59 be
       -0.08194038 0.16203079 -0.31583977 -0.21263471
0003a0 0f 0e 12 bf d5 ed 85 3e 7c 5a 23 3d 33 f6 35 be
       -0.570527 0.26158014 0.039881214 -0.17769699
0003b0 a6 ae 83 be 3d 74 9c be 5d 35 27 3e 72 91 04 bf
       -0.25719184 -0.30557433 0.1632895 -0.5178443
0003c0 5e ee 7e bd 6a eb 85 be 80 36 0e be 76 94 ca 3d
       -0.062239043 -0.2615617 -0.13887978 0.09891598
0003d0 bc 2c f2 be a2 f7 d6 be c5 bb 07 bd cd 9e 99 be
       -0.47299755 -0.41985804 -0.033138055 -0.30003968
0003e0 60 b5 cc bd 46 bf 21 3e ea 90 00 bf 6a 0f 9d be
       -0.09995532 0.15795621 -0.5022112 -0.30675822
0003f0 66 e4 a6 be e3 bc 62 bd 71 f9 b9 bd 9d 78 66 3d
       -0.3259613 -0.055355918 -0.0908078 0.05626737

fc5.bias f4 [10]
000000 29 d9 29 be d7 0e b9 bc 16 c2 74 be 8a d0 24 be
       -0.16586746 -0.022590084 -0.23902163 -0.16095176
000010 f5 c6 b7 bd ea e3 39 bd 7a 65 70 be 70 32 22 be
       -0.08973495 -0.04538337 -0.2347621 -0.15839553
000020 63 74 bb 3e e2 d7 02 3e
       0.36612234 0.12777665
